…
* Dense. This is the final layer (fully connected). It is used with the parameters:
* units: the number of classes (in our case 10);
* activation : softmax; for this final layer it is used softmax activation (standard for multiclass classification)
Then we compile the model, specifying as well the following parameters:
* loss;
* optimizer;
* metrics.


Model Summary:
_________________________________________________________________
Layer (type)                 Output Shape              Param #   
=================================================================
conv2d (Conv2D)              (None, 26, 26, 32)        320       
_________________________________________________________________
max_pooling2d (MaxPooling2D) (None, 13, 13, 32)        0         
_________________________________________________________________
dropout (Dropout)            (None, 13, 13, 32)        0         
_________________________________________________________________
conv2d_1 (Conv2D)            (None, 11, 11, 64)        18496     
_________________________________________________________________
max_pooling2d_1 (MaxPooling2 (None, 5, 5, 64)          0         
_________________________________________________________________
dropout_1 (Dropout)          (None, 5, 5, 64)          0         
_________________________________________________________________
conv2d_2 (Conv2D)            (None, 3, 3, 128)         73856     
_________________________________________________________________
dropout_2 (Dropout)          (None, 3, 3, 128)         0         
_________________________________________________________________
flatten (Flatten)            (None, 1152)              0         
_________________________________________________________________
dense (Dense)                (None, 128)               147584    
_________________________________________________________________
dropout_3 (Dropout)          (None, 128)               0         
_________________________________________________________________
dense_1 (Dense)              (None, 10)                1290      
=================================================================
Total params: 241,546
Trainable params: 241,546
Non-trainable params: 0




Results
Model accuracy 0.9225
Test loss: 0.2025180616557598
Test accuracy: 0.9291

                         		precision    recall  f1-score   support

Class 0 (T-shirt/top)	 :       0.87      0.89      0.88      1000
    Class 1 (Trouser)	 :       0.99      0.98      0.99      1000
…
